PS-TimeNet/checkpoints/net_params.pth (torch, 533501 bytes, 374 tensors)

down_1.emb.weight f4 [12, 1, 7]
0	0x3dc04dfc	0.09389874
1	0x3d396bb5	0.045268733
2	0xbdfb8d4b	-0.12282809
3	0x3ea53f6f	0.32274958
4	0x3e20eca4	0.15715271
5	0x3cf65bc2	0.03007305
6	0xbe111c77	-0.14171015
7	0xbde0226a	-0.10944064
8	0x3a755d50	0.0009359913
9	0x3e1b619e	0.15173957
10	0x3e1e6750	0.15469098
11	0xbe873c76	-0.26413316
12	0xbd6aaa19	-0.057291124
13	0x3c50af72	0.012737142
14	0x3d89af80	0.06722927
15	0xbe9042c6	-0.28175944
16	0xbe17aa73	-0.14811115
17	0xbe0525d4	-0.13002712
18	0xbdebbdb9	-0.11510796
19	0x3ead769b	0.3387955
20	0x3eacc251	0.33742002
21	0xbde8cc14	-0.1136705
22	0xbe1f5c67	-0.15562592
23	0x3d9beebb	0.076138936
24	0xbd64c0d8	-0.055847973
25	0xbd2efe0c	-0.042722747
26	0xbde5b8f9	-0.11216921
27	0xbe1c68e6	-0.1527439
28	0x3e47dbe6	0.19517478
29	0x3dcf7715	0.10130135
30	0xbdfee401	-0.12445832
31	0xbaf0c2ad	-0.0018368565
32	0xbdecdb2e	-0.11565243
33	0x3d2d6075	0.042328317
34	0xbcc2eaa9	-0.023793535
35	0x3dd23fc0	0.102660656
36	0xbe3bef36	-0.1835297
37	0x3cb92af9	0.022603499
38	0xbc3b6d56	-0.011439642
39	0x3df3527a	0.118809655
40	0xbda27794	-0.07932964
41	0xbe758d15	-0.239796
42	0xbe0cf478	-0.13765132
43	0xbeea3ad0	-0.45747995
44	0x3d14368b	0.03618483
45	0xbdfc5b0b	-0.123220526
46	0x3dae07a3	0.0849755
47	0x3df1060f	0.11768734
48	0xbd655a85	-0.05599453
49	0x3e40393e	0.18771836
50	0xbd13ddc8	-0.03610018
51	0x3e8be059	0.273196
52	0x3e39ae8b	0.18132989
53	0xbddffc84	-0.109368354
54	0x3e09fc9e	0.13475272
55	0x3e81783a	0.25287038
56	0xbe23c48a	-0.15992942
57	0xbda8a951	-0.082354195
58	0x3e76e06f	0.24109052
59	0x3b9f335f	0.004858419
60	0x3e5bbab7	0.21457945
61	0x3e635a12	0.22202328
62	0xbd82339d	-0.06357501
63	0x3d9f263f	0.07770967
64	0x3e0cbb9a	0.1374344
65	0xbe090e6f	-0.13384412
66	0x3d297e11	0.041379992
67	0x3d28af46	0.04118278
68	0xbd4a5dc3	-0.049405824
69	0x3d3d5519	0.046223734
70	0xbdd49254	-0.103794724
71	0x3d8ee87b	0.06977936
72	0x3e4dd013	0.20098905
73	0x3cc5a06f	0.024124352
74	0x3e10a1c2	0.14124206
75	0xbcbd9f5d	-0.02314728
76	0x3d95df4d	0.07317982
77	0xbed0bde4	-0.40769875
78	0x3dc7cc9a	0.097558215
79	0xbd93742c	-0.071998924
80	0xbe339a15	-0.17539246
81	0x3c8ba8ef	0.017048327
82	0x3d84dc05	0.06487278
83	0xbeb3b1c0	-0.3509655

down_1.emb.bias f4 [12]
0	0xbcd39547	-0.025828017
1	0x3c5a37bb	0.013318951
2	0xbbdcccf8	-0.0067383014
3	0xbc226507	-0.009911782
4	0xbc96f90a	-0.018429298
5	0x39d3096f	0.00040252085
6	0xbc999b89	-0.018750923
7	0xbc162d43	-0.009166065
8	0x3d08c24d	0.033388425
9	0xbb60053a	-0.0034182803
10	0xbbde65df	-0.0067870463
11	0x3bf3850b	0.0074316314

down_1.bn.weight f4 [12]
0	0x3f823240	1.0171585
1	0x3f77efd0	0.968503
2	0x3f830f22	1.0238993
3	0x3f7c934b	0.9866225
4	0x3f86c94b	1.053018
5	0x3f7f0471	0.9961615
6	0x3f86093f	1.0471572
7	0x3f7d0b4d	0.9884537
8	0x3f85063e	1.039253
9	0x3f7c3693	0.98520774
10	0x3f80bd39	1.0057746
11	0x3f8881ef	1.0664653

down_1.bn.bias f4 [12]
0	0x3dc6e2f2	0.09711255
1	0xbe88ad91	-0.2669492
2	0x3dd65617	0.10465639
3	0x3df76233	0.12079277
4	0x3de7eb57	0.113241844
5	0xbd9c1279	-0.07620711
6	0x3e2ed1a6	0.17072162
7	0xbdfbf6cb	-0.123029314
8	0xbded0f18	-0.115751445
9	0xbe171d90	-0.14757371
10	0xbdaf1721	-0.08549333
11	0x3dca5b76	0.09880726

down_1.bn.running_mean f4 [12]
0	0xbcd311fa	-0.025765408
1	0x3c59edf7	0.013301364
2	0xbbdc4b07	-0.006722811
3	0xbc23fc71	-0.010008917
4	0xbc96e17f	-0.018418072
5	0x39bad23b	0.00035633318
6	0xbc9a5219	-0.018837975
7	0xbc13bced	-0.009017211
8	0x3d0907ee	0.033454828
9	0xbb5e40fa	-0.003391324
10	0xbbdc43ef	-0.0067219655
11	0x3beefb23	0.0072931214

down_1.bn.running_var f4 [12]
0	0x3c3d2578	0.011544578
1	0x3a7ae052	0.00095701695
2	0x39d0ada1	0.00039802215
3	0x3cc5f25f	0.024163423
4	0x39dbe79d	0.000419435
5	0x3bba6eda	0.005689484
6	0x3cb74566	0.022371959
7	0x3d79d963	0.06099833
8	0x3c359748	0.011083432
9	0x3b03ef8a	0.002013179
10	0x3c3ae865	0.011407946
11	0x3d5a3340	0.053271532

blocks_1.0.proj_1.weight f4 [12, 12, 1]
0	0x3ee446c2	0.44585234
1	0x3da8b67a	0.0823793
2	0x3e4e4d80	0.20146751
3	0xbefe0890	-0.49615908
4	0xbe3fad95	-0.1871856
5	0xbe010d38	-0.12602699
6	0x3f1bec5c	0.6090753
7	0x3f15b872	0.58484566
8	0x3d8ccfaa	0.06875546
9	0xbf6f9f87	-0.93602794
10	0xbe450de9	-0.19243588
11	0xbeab07fa	-0.33404523
12	0x3eaccfb6	0.3375222
13	0xbf2b7ac9	-0.6698423
14	0xbe1be995	-0.15225823
15	0x3e11d718	0.14242208
16	0xbdb3cf5e	-0.087797865
17	0x3e2ec282	0.17066386
18	0xbe03ed56	-0.12883505
19	0xbec55392	-0.38540322
20	0x3d93a821	0.072098024
21	0x3d44b017	0.048019495
22	0x3f552331	0.8325682
23	0xbe8a2012	-0.26977593
24	0x3d130950	0.035897553
25	0x3efeceeb	0.4976724
26	0xb8e30a3b	-0.00010826109
27	0xbf3d7245	-0.74002486
28	0xbdfc1ed1	-0.12310565
29	0xbd74c150	-0.05975467
30	0xbf2ffa08	-0.6874089
31	0xbde9326d	-0.11386571
32	0xbebee639	-0.3728502
33	0xb9d9be73	-0.0004153136
34	0x3ed771a7	0.42078897
35	0xbdeab7a7	-0.1146081
36	0x3e152f49	0.14568819
37	0xbf4e6ca7	-0.8063454
38	0x3e1de44f	0.15419124
39	0x3d5ad49a	0.05342541
40	0xbe8568a8	-0.2605641
41	0xbeee7167	-0.46570894
42	0xbe1b1e57	-0.15148292
43	0xbe329d19	-0.1744274
44	0xbe9ad46b	-0.30240187
45	0x3cde625b	0.027146509
46	0x3ebdab05	0.3704454
47	0x3d34d659	0.04414973
48	0x3e79625b	0.24353926
49	0x3dfdd65a	0.123944
50	0x3da366f2	0.0797862
51	0x3d9b3d3c	0.07580039
52	0x3e99ced4	0.3004061
53	0xbe8ee7d8	-0.27911258
54	0x3e4d8fa2	0.20074323
55	0xbf44fb5f	-0.7694606
56	0x3f1047d7	0.5635962
57	0xbf0e4d79	-0.55586964
58	0x3e7d033c	0.24708265
59	0xbf0d8ddc	-0.55294585
60	0xbe679246	-0.22614393
61	0x3eb1e074	0.34741557
62	0x3e93f2c0	0.2889614
63	0x3b71e311	0.0036909024
64	0xbf44305c	-0.7663629
65	0xbb9f12e9	-0.004854549
66	0x3f172596	0.59041727
67	0xbea0e045	-0.31421104
68	0x3d2e1451	0.042499844
69	0xbe8c16eb	-0.27361235
70	0x3e5e9b43	0.21738915
71	0x3d2fe794	0.04294546
72	0xbe19054a	-0.14943424
73	0x3cb83824	0.022487707
74	0x3f001784	0.5003588
75	0x3eb12e41	0.346056
76	0x3e1ab521	0.15108158
77	0xbf0e8a61	-0.556799
78	0xbc16b32d	-0.009197992
79	0xbcc3a373	-0.02388165
80	0xbdd15347	-0.10220962
81	0xbe0c1cb4	-0.13682824
82	0x3dcab6fc	0.09898183
83	0x3e9f5d5d	0.31125918
84	0xbefa1435	-0.48843542
85	0xbf48982b	-0.7835719
86	0x3f9ea595	1.2394282
87	0xbe38a6cf	-0.18032382
88	0x3f1b7f4b	0.6074111
89	0xbf1ec7ee	-0.6202382
90	0xbf2d78dd	-0.6776255
91	0xbe0fd979	-0.14047803
92	0xbdbb92a6	-0.0915883
93	0xbe1c7fb5	-0.15283091
94	0x3e2bc0f1	0.1677282
95	0xbf0759c4	-0.52871346
96	0x3e06e018	0.13171422
97	0xbf1cb8b2	-0.6121932
98	0x3f0590c9	0.5217405
99	0xbdc309a1	-0.09523321
100	0x3ce3e24d	0.02781787
101	0x3f1a0285	0.60160094
102	0x3f011945	0.50429183
103	0x3e186013	0.148804
104	0xbf25d194	-0.64772916
105	0xbf08f657	-0.53500885
106	0x3eda420d	0.42628518
107	0x3ef54e73	0.47911415
108	0x3eea346a	0.45743114
109	0x3d3bc24b	0.04583959
110	0x3e5ea727	0.21743451
111	0x3e0369ed	0.12833376
112	0x3f8f432e	1.1192377
113	0xbda9794c	-0.08275089
114	0xbf362faa	-0.7116648
115	0xbeab3284	-0.33436978
116	0x3e8f8fb8	0.28039336
117	0x3ebbcce0	0.36679745
118	0xbf424641	-0.7588845
119	0x3b264075	0.002536801
120	0xbe905b10	-0.28194475
121	0x3db54e02	0.088527694
122	0x3e1c3e44	0.15258127
123	0xbc3a3f23	-0.011367592
124	0x3f5aebc3	0.85515994
125	0x3e24cbb2	0.16093329
126	0xbe533dc3	-0.20629029
127	0x3ea915a3	0.3302432
128	0xbeb48511	-0.35257772
129	0x3dde1fde	0.10845922
130	0x3ef3214f	0.4748635
131	0xbd60119e	-0.0547043
132	0x3f074042	0.52832425
133	0x3eaaaaed	0.3333353
134	0xbf665f4c	-0.8998916
135	0x3f185082	0.59497845
136	0x3c834fa9	0.016029196
137	0xbee065d5	-0.43827692
138	0x3d212b27	0.039347794
139	0x3f2bfd69	0.6718355
140	0x3eb54551	0.35404447
141	0xbe87438a	-0.26418716
142	0xbdb10257	-0.086430244
143	0xbe90f228	-0.2830975

blocks_1.0.proj_1.bias f4 [12]
0	0x3c0a4223	0.00843862
1	0xbb2c7fc6	-0.0026321276
2	0xbb78bbba	-0.003795369
3	0xbb3fc6b0	-0.0029262714
4	0x3b9c0541	0.0047613685
5	0x3abbf7df	0.0014340839
6	0xb987395b	-0.0002579194
7	0x3a329ecb	0.0006813823
8	0x39c2b4b8	0.0003713721
9	0x3ab82041	0.0014047698
10	0x399762b3	0.000288745
11	0x3c0266df	0.007959097

blocks_1.0.bn1.weight f4 [12]
0	0x3f7bc928	0.98353815
1	0x3f7ed6e3	0.9954664
2	0x3f8187e7	1.0119599
3	0x3f7aed38	0.9801822
4	0x3f816588	1.010911
5	0x3f7df995	0.99208957
6	0x3f77a684	0.9673846
7	0x3f7ef5db	0.99593896
8	0x3f8357c3	1.0261158
9	0x3f82834b	1.0196317
10	0x3f82b200	1.0210571
11	0x3f80d517	1.006503

blocks_1.0.bn1.bias f4 [12]
0	0x3d9636e8	0.07334691
1	0x3cf53889	0.029934185
2	0xbdabdfcb	-0.083922945
3	0xbcef732a	-0.02922972
4	0x3da80e7a	0.08205886
5	0xbdbd06fc	-0.09229848
6	0x3aa46c2b	0.0012544444
7	0x3da9fb97	0.0829994
8	0xbda8dab5	-0.0824484
9	0xbbd9914a	-0.0066396343
10	0x3dd81cdc	0.105523795
11	0xbdd4a5ab	-0.10383161

blocks_1.0.bn1.running_mean f4 [12]
0	0x3dffe944	0.12495664
1	0x3dcba331	0.09943236
2	0xbeadc2da	-0.33937722
3	0x3e82387a	0.25433713
4	0x3e0d67fb	0.13809197
5	0xbc0a115f	-0.008426993
6	0x3e412547	0.18861876
7	0x3e82581e	0.25457853
8	0x3ed1b71b	0.4096001
9	0x3dd31f3d	0.103086926
10	0xbd471096	-0.048599802
11	0xbdec2ff2	-0.11532582

blocks_1.0.bn1.running_var f4 [12]
0	0x3d945759	0.07243223
1	0x4004da43	2.0758216
2	0x3f77baf7	0.9676966
3	0x3fc58210	1.5430317
4	0x3ec8bc95	0.39206377
5	0x40888b3e	4.2669973
6	0x3d6e112f	0.058121856
7	0x4179c56d	15.6107
8	0x3f59a87c	0.8502271
9	0x40862452	4.1919336
10	0x3fe3082e	1.7736871
11	0x3db500ae	0.0883802

blocks_1.0.attn.conv1.weight f4 [12, 1, 9]
0	0x3f23a516	0.63923776
1	0x3c85a389	0.016313331
2	0x3dd6b2ed	0.10483346
3	0xbcb049d5	-0.02151958
4	0x3dae5f56	0.08514278
5	0x3f013fa4	0.5048773
6	0xbe8d87a2	-0.27642542
7	0x3f4efbb3	0.8085281
8	0xbebc2c99	-0.36752775
9	0x3f253a8a	0.6454245
10	0x3edd2a8f	0.43196532
11	0x3e6ace4c	0.22930259
12	0xbf0ae765	-0.5425933
13	0xbe00c47a	-0.1257495
14	0xba032fbf	-0.0005004368
15	0x3e844d1d	0.25840083
16	0xbf19d820	-0.60095406
17	0xbf3fef2d	-0.7497433
18	0x3e136d5e	0.14397189
19	0xbe07ba05	-0.13254555
20	0xbdadfec6	-0.0849586
21	0x3f8a6ff6	1.0815418
22	0x3ebd0ef5	0.36925474
23	0x3e122afb	0.14274208
24	0xbe9de10a	-0.30835754
25	0x3f10ddc6	0.565884
26	0x3f0554f2	0.5208274
27	0x3e176495	0.14784463
28	0xbd06bc8e	-0.032894664
29	0x3d1f3d8d	0.03887706
30	0xbf9e236e	-1.2354562
31	0x3f280d58	0.6564536
32	0xbe9f8537	-0.31156322
33	0xbf346cdc	-0.70478606
34	0x3d2d1e5a	0.042265274
35	0xbe91a156	-0.28443402
36	0xbf3f6805	-0.74768096
37	0xbf48240c	-0.78180003
38	0x3f2ae7a2	0.66759694
39	0x3e919901	0.28437045
40	0xbec6c868	-0.38824773
41	0x3e2402b0	0.1601665
42	0x3d564cb0	0.05231923
43	0xbec54e15	-0.38536134
44	0x3e88b4a8	0.2670033
45	0xbef2d6e0	-0.47429562
46	0xbf5fc82b	-0.8741481
47	0x3ee83c18	0.45358348
48	0xbee8c10c	-0.45459783
49	0x3eabb3b5	0.33535543
50	0x3df635e8	0.120220006
51	0xbce1ae4d	-0.027548933
52	0xbe0c90a4	-0.13727051
53	0xbdd37ad9	-0.10326166
54	0x3d86bf68	0.065794766
55	0xbf0f84bd	-0.5606192
56	0x3e1a0c03	0.15043645
57	0xbf36db62	-0.714285
58	0xbeb5c8be	-0.35504717
59	0x3f24cf02	0.6437837
60	0xbf1a2131	-0.60206896
61	0xbe993fd0	-0.29931498
62	0x3e8e8c3a	0.2784136
63	0xbdca41c6	-0.098758265
64	0xbd47931a	-0.04872427
65	0xbd76eb89	-0.060283218
66	0x3efdd84c	0.49579084
67	0x3c57f697	0.01318135
68	0x3ef5199a	0.47871095
69	0x3eb22a97	0.34798118
70	0x3e7fc1a3	0.2497621
71	0xbf3bd47a	-0.7337109
72	0xbe3c05c0	-0.18361568
73	0xbecb9398	-0.39761043
74	0xbec72dfc	-0.3890227
75	0x3cd411ce	0.025887396
76	0xbd1a4a6e	-0.037668638
77	0x3f66cd93	0.9015743
78	0x3e7609e6	0.24027213
79	0x3e5c604c	0.2152111
80	0x3e992c27	0.29916498
81	0xbe31e7ab	-0.1737353
82	0x3daec03e	0.08532761
83	0xbf14e359	-0.58159405
84	0x3e2e3f60	0.17016363
85	0x3f00bfa7	0.5029244
86	0xbe82c568	-0.25541234
87	0xbf8a3631	-1.0797788
88	0x3e8a7e97	0.27049705
89	0x3f3cbbc2	0.73723996
90	0x3e58cb67	0.21171342
91	0x3e8948ad	0.2681326
92	0xbedecee7	-0.4351723
93	0xbeec68fe	-0.46173853
94	0x3e2f3a06	0.17111978
95	0x3e94f93b	0.29096398
96	0x3e5b30fd	0.21405406
97	0x3df4db23	0.119558595
98	0x3f72dc94	0.94867826
99	0x3e249035	0.16070636
100	0x3ee2fc22	0.44332987
101	0xbec46770	-0.38360167
102	0x3d8e2e6a	0.069424465
103	0xbf0d0061	-0.55078703
104	0x3e9db048	0.30798554
105	0x3ed496c1	0.41521266
106	0xbf320b7b	-0.6954877
107	0x3e87c4c6	0.26517314

blocks_1.0.attn.conv1.bias f4 [12]
0	0x3d8b9cec	0.0681704
1	0x3ce83c48	0.028349057
2	0xbd94a5c6	-0.07258181
3	0x3ccd5e3a	0.025069345
4	0xbc917227	-0.017754627
5	0x3ce16d38	0.0275179
6	0x3cf12b13	0.029439485
7	0x3d1bec80	0.03806734
8	0xbc1f9411	-0.009739892
9	0xbd0b4403	-0.034000408
10	0x3dbe69ba	0.092975095
11	0x3cd6bb72	0.026212428

blocks_1.0.attn.conv_sequential.weight f4 [12, 1, 11]
0	0x3f3b2cfd	0.7311552
1	0x3f29cd84	0.66329217
2	0x3dd8e04d	0.10589657
3	0xbd481185	-0.048844833
4	0xbf0eac22	-0.55731404
5	0x3cbf93a8	0.023385838
6	0xbd013dbc	-0.031553015
7	0x3e5e5679	0.21712674
8	0x3f056634	0.52109075
9	0x3dabb1bb	0.08383509
10	0x3ef5f525	0.48038593
11	0xbedfed34	-0.4373566
12	0xbe3a2e0b	-0.18181626
13	0x3f489f3f	0.7836799
14	0xbe698f8e	-0.22808668
15	0x3ec9ddb7	0.39426968
16	0xbddb7afc	-0.10716817
17	0x3ea4295e	0.3206281
18	0x3f28150b	0.6565711
19	0x3e4f7cbd	0.20262428
20	0x3f1ec89f	0.62024873
21	0x3eee6713	0.46563014
22	0xbdca30ff	-0.098726265
23	0x3ef48492	0.47757393
24	0x3ed0d29e	0.40785688
25	0x3e538950	0.2065785
26	0xbb42c2df	-0.0029718203
27	0xbea1dc05	-0.31613174
28	0xbec92eae	-0.39293426
29	0x3cc3eff6	0.023918133
30	0x3d2cbf08	0.04217437
31	0xbefb7878	-0.49115348
32	0xbea31fea	-0.31860286
33	0x3e0f68c5	0.1400481
34	0xbe20e886	-0.157137
35	0x3e361f6b	0.17785423
36	0xbeb2ead0	-0.34944773
37	0x3f2bed20	0.671587
38	0xbeb40042	-0.35156447
39	0xbd272749	-0.04080895
40	0x3ee3a60a	0.44462615
41	0xbc683c34	-0.01417451
42	0x3e58b95f	0.21164463
43	0x3f28254a	0.656819
44	0x3e94f8c4	0.29096043
45	0xbe99019d	-0.29884043
46	0xbf2b0a32	-0.6681243
47	0x3de8b516	0.113626644
48	0xbde8dc70	-0.1137017
49	0xbeef66be	-0.46758074
50	0xbf1e5273	-0.6184456
51	0xbeb7e827	-0.35919306
52	0xbf1063a7	-0.5640206
53	0xbbbc9a6f	-0.0057557146
54	0xbeb99da1	-0.36253074
55	0x3f74dabb	0.95646256
56	0xbecb2589	-0.39677075
57	0xbe3f8950	-0.18704724
58	0xbe93f093	-0.2889448
59	0x3e915ebc	0.2839259
60	0xbecec762	-0.40386492
61	0x3f18f32e	0.5974606
62	0x3eab2ad9	0.33431128
63	0x3e1c30e4	0.15253025
64	0x3ec5b9f5	0.38618436
65	0x3df3bd26	0.119013116
66	0xbf6e9ba4	-0.9320624
67	0x3f34651a	0.7046677
68	0xbec1f537	-0.37882397
69	0xbe334d26	-0.17509899
70	0xbe099f7f	-0.13439749
71	0xbe999202	-0.29994208
72	0x3dfd2732	0.123609915
73	0xbeb6a83a	-0.35675222
74	0x3f117f1e	0.5683459
75	0xbd32e62c	-0.04367654
76	0xbeaf4e92	-0.34239632
77	0xbf0b472a	-0.5440546
78	0xbd9d0517	-0.076669864
79	0x3ea3ec6a	0.32016307
80	0x3e7095db	0.23494665
81	0xbeed656f	-0.4636645
82	0x3deaf546	0.114725634
83	0x3e8c10c3	0.27356538
84	0xbbef93af	-0.0073113064
85	0x3ec92f45	0.39293876
86	0xbf091f59	-0.5356346
87	0xbf1dca25	-0.61636573
88	0x3dc4a641	0.09602023
89	0x3f120157	0.57033294
90	0xbf440102	-0.7656404
91	0x3eab55cb	0.33463892
92	0x3e1b135d	0.15144105
93	0x3e47c76f	0.19509672
94	0xbf8e4ef7	-1.1117848
95	0x3e8c9cb3	0.27463302
96	0x3de74031	0.112915404
97	0x3e43fba2	0.19138959
98	0xbf2efa39	-0.6835056
99	0xbe06f267	-0.13178407
100	0xbce4d05c	-0.027931385
101	0xbe10a651	-0.14125945
102	0xbf1a75e9	-0.60336167
103	0x3ee739f8	0.45161414
104	0xbe7b7db0	-0.24559665
105	0x3e46c5ec	0.19411439
106	0x3e1b5111	0.15167643
107	0xbda298c0	-0.07939291
108	0x3f836731	1.0265867
109	0xbda2f9eb	-0.07957824
110	0x3e5e623c	0.21717161
111	0xbd01710e	-0.031601958
112	0xbe5199d6	-0.2046884
113	0x3ea8ef1f	0.32994935
114	0xbedc693a	-0.43049031
115	0xbe153ac9	-0.14573206
116	0x3ee3b68f	0.4447522
117	0x3e6aeaed	0.2294118
118	0x3f19c46b	0.60065335
119	0xbed55ae1	-0.41670898
120	0x3ea9a62e	0.33134598
121	0x3d7d7d40	0.061887026
122	0xbeff06bb	-0.49809822
123	0xbe343a74	-0.17600423
124	0xbefc3658	-0.4926021
125	0xbf0690ac	-0.525645
126	0xbe0ac2f5	-0.13550933
127	0x3d27f6b5	0.041006763
128	0x3e02190e	0.1270487
129	0xbea8a9f8	-0.32942176
130	0xbf5d5470	-0.86456966
131	0x3ef3c865	0.47613826

blocks_1.0.attn.conv_sequential.bias f4 [12]
0	0x3d1fab79	0.03898189
1	0xbc58c0a2	-0.013229521
2	0xbcb4d1f4	-0.02207277
3	0x3c91eed3	0.017814076
4	0x3d498c44	0.049206033
5	0x3bcf7ea4	0.0063322354
6	0xbc473230	-0.012157962
7	0xbc5f77e5	-0.013639425
8	0x3c94311c	0.018089823
9	0xbc84aac2	-0.016194705
10	0x3d698a64	0.057016745
11	0xbc890ee0	-0.016730726

blocks_1.0.attn.conv2.weight f4 [12, 12, 1]
0	0xbde93ca7	-0.11388522
1	0xbe65c306	-0.22437677
2	0xbde41ec5	-0.11138681
3	0xbda247ed	-0.07923875
4	0x3d8e7f97	0.069579296
5	0x3e8fc8de	0.28082937
6	0x3e43d550	0.19124341
7	0xbe2f3085	-0.17108352
8	0xbde757a2	-0.112960115
9	0x3d6429e0	0.055703998
10	0xbdabbd9e	-0.08385776
11	0x3ea05ab2	0.31319195
12	0x3e1bc08f	0.15210174
13	0x3e15bf05	0.1462365
14	0x3e2fdd18	0.17174184
15	0x3e9f99ce	0.3117203
16	0x3f0a6eb5	0.54075176
17	0x3ea9c9f8	0.33161902
18	0xbe27fb92	-0.1640456
19	0xbf3f0903	-0.74623126
20	0x3e2025cd	0.1563942
21	0x3e483493	0.19551305
22	0x3ec3e3c9	0.38259724
23	0xbf1fb92f	-0.6239194
24	0xbd1589e1	-0.036508445
25	0xbd93c7cf	-0.07215845
26	0x3f77a540	0.96736526
27	0x3e15c00f	0.14624046
28	0xbe3d8122	-0.18506292
29	0xbedeb24b	-0.43495402
30	0xbf122591	-0.5708857
31	0xbee971d4	-0.45594656
32	0xbe836e00	-0.2566986
33	0xbf7f5ae0	-0.9974804
34	0xbed796b5	-0.42107168
35	0xbe647719	-0.22311057
36	0x3c98ba2d	0.018643463
37	0xbf01b7ca	-0.50671065
38	0xbd3f15de	-0.046651714
39	0x3ee8a985	0.45441833
40	0xbf823337	-1.017188
41	0xbdfa2878	-0.1221475
42	0x3eb786d4	0.35845053
43	0xbed3191e	-0.412301
44	0xbef3919b	-0.47572026
45	0x3bb42c7b	0.0054984665
46	0xbe8b2ea0	-0.2718401
47	0xbde3e1a2	-0.111270204
48	0xbe332ab3	-0.17496757
49	0xbf28bb1b	-0.659105
50	0xbf393f28	-0.72361994
51	0x3e4401ae	0.19141266
52	0xbd676e28	-0.056501538
53	0xbcf42cf2	-0.029806588
54	0x3ef1e25f	0.4724302
55	0x3e4e644d	0.20155449
56	0x3f3c5440	0.73566055
57	0xbef805e6	-0.48442
58	0xbe01a121	-0.12659122
59	0x3b09ff77	0.002105681
60	0xbf728382	-0.94731915
61	0x3e521a21	0.2051778
62	0xbe76b659	-0.24092998
63	0xbdfc3b63	-0.123160146
64	0xbd9f1056	-0.07766788
65	0xbf0201d2	-0.5078403
66	0x3f32ba0c	0.69815135
67	0xbe68d745	-0.22738369
68	0xbd25e948	-0.040505677
69	0xbf7562d7	-0.9585394
70	0x3f5eda2a	0.8705164
71	0xbebd1b04	-0.36934674
72	0xbf8ffd9d	-1.1249272
73	0x3e3d2bc9	0.18473734
74	0x3eac537f	0.33657452
75	0x3df216f1	0.11820782
76	0x3e91604e	0.28393787
77	0x3dcf317d	0.10116861
78	0xbd4f2c77	-0.050579514
79	0x3f104b42	0.56364834
80	0x3f105578	0.56380415
81	0xbd0633a3	-0.03276409
82	0xbe4560cd	-0.19275208
83	0xbee16f74	-0.44030344
84	0x3ee6da31	0.45088342
85	0x3e9ebf91	0.3100553
86	0xbeabfd09	-0.33591488
87	0xbd122b8e	-0.03568607
88	0xbe408e56	-0.18804297
89	0x3e32333f	0.17402361
90	0x3e3045e2	0.17214158
91	0xbe055ba7	-0.13023244
92	0x3d42ba87	0.047541168
93	0x3c4d5f46	0.012534922
94	0x3f023511	0.5086222
95	0xbdbc1a75	-0.09184734
96	0xbd1e59e0	-0.03865993
97	0x3ede2c24	0.43393052
98	0xbeb060ba	-0.34448797
99	0x3f87f8c6	1.0622795
100	0x3c9a7e64	0.018859096
101	0x3e324ddd	0.17412515
102	0xbea003dd	-0.31252947
103	0x3c9a9b4c	0.01887288
104	0x3e1c95fe	0.15291592
105	0xbd6b8b88	-0.057506114
106	0x3e8113ae	0.25210327
107	0x3d425b39	0.047450278
108	0x3f0f30ca	0.5593382
109	0xbd605cdf	-0.05477607
110	0xbdeb5318	-0.11490458
111	0xbe8ed50b	-0.27896914
112	0x3f238258	0.63870764
113	0xbf5286d4	-0.8223698
114	0xbd020927	-0.03174701
115	0xbdd02c3d	-0.10164688
116	0x3f0867e1	0.53283507
117	0x3e9eb458	0.30996966
118	0x3c8375aa	0.016047318
119	0x3f33810c	0.70118785
120	0xbdd89999	-0.105761714
121	0x3bc0f8ac	0.005889019
122	0x3e9f4f8f	0.31115386
123	0xbe799927	-0.24374829
124	0x3ea8707e	0.32898325
125	0x3e183135	0.14862521
126	0x3e9101c8	0.2832167
127	0xbe245365	-0.16047437
128	0xbd9bb75d	-0.07603333
129	0xbd37e707	-0.04489806
130	0xbdb8b410	-0.09018719
131	0x3f323525	0.6961234
132	0xbe375047	-0.17901717
133	0xbea4e562	-0.32206255
134	0xbdf15abd	-0.11784885
135	0x3eb11d02	0.34592444
136	0x3effc2d5	0.49953333
137	0x3e03a4b8	0.12855804
138	0x3ed50851	0.41607907
139	0xbe3db19f	-0.18524788
140	0xbea5c2cd	-0.32375184
141	0x3f03c492	0.5147182
142	0xbd9b025e	-0.07568811
143	0x3e98b702	0.29827124

blocks_1.0.attn.conv2.bias f4 [12]
0	0xbc86b3b5	-0.016443113
1	0x3cebe8f4	0.028797604
2	0x3be162d8	0.006878238
3	0xbb9187f6	-0.0044412566
4	0x3d325f85	0.043548126
5	0xbc589065	-0.01321802
6	0xbe0fe7ea	-0.14053312
7	0x3ce74c25	0.02823455
8	0x3d02b2bb	0.031908732
9	0x3b884c6d	0.0041595013
10	0xbb2b4eac	-0.0026139421
11	0xbc9a31b3	-0.018822527

blocks_1.0.proj_2.weight f4 [12, 12, 1]
0	0xbe2d5780	-0.1692791
1	0x3e93bc5a	0.28854638
2	0x3e532cb4	0.20622522
3	0x3e62ccf2	0.22148493
4	0x3f3add5b	0.7299401
5	0x3ed2b53d	0.411539
6	0x3e7faf52	0.24969223
7	0x3eb86b97	0.36019585
8	0x3b29865b	0.0025867436
9	0xbe8c2d6d	-0.27378407
10	0xbc22bf7b	-0.009933348
11	0xbf656b29	-0.8961664
12	0xbf59aa8c	-0.8502586
13	0x3dd4b4cb	0.10386046
14	0xbe7d26ce	-0.24721834
15	0x3ecef78b	0.40423235
16	0xbe1e4302	-0.15455249
17	0xbd6d2674	-0.057898
18	0xbe99389a	-0.29925996
19	0x3f1e9f99	0.61962277
20	0x3f4065ef	0.7515554
21	0x3f0be1c1	0.5464135
22	0x3ddbaf62	0.10726811
23	0xbf1d9f94	-0.6157162
24	0x3d7dca63	0.06196059
25	0x3f6e4a97	0.93082565
26	0x3eb2bb34	0.3490845
27	0x3f13ec41	0.5778237
28	0x3da8900e	0.08230601
29	0xbda48681	-0.08033467
30	0xbef32228	-0.47486997
31	0x3eaaa552	0.33329254
32	0xbe21c6c5	-0.15798481
33	0x3eca9686	0.39567965
34	0x3d9ff75e	0.078108534
35	0xbea23ab2	-0.31685406
36	0xbf03f87d	-0.5155104
37	0x3ea7ef9a	0.3279999
38	0x3e7398bd	0.23788734
39	0xbe37778d	-0.17916699
40	0x3e3ef675	0.18648703
41	0xbf01a3cd	-0.50640565
42	0xbedaed64	-0.4275924
43	0x3f1911ce	0.5979279
44	0x3f314372	0.6924354
45	0xbd02e4d0	-0.031956494
46	0x3de35040	0.11099291
47	0xbe7cd6ba	-0.24691287
48	0x3ced9248	0.029000416
49	0x3f0d9b44	0.5531504
50	0x3f143e8b	0.57907933
51	0x3f5bc7f2	0.8585197
52	0xbd8c0a76	-0.06837933
53	0x3da4c967	0.08046227
54	0xbe98b490	-0.29825258
55	0x3e2f5c37	0.17125021
56	0xbc46e492	-0.012139456
57	0xbe757620	-0.23970842
58	0x3ddbed6f	0.10738646
59	0x3d53442f	0.051578697
60	0xbf142f09	-0.5788427
61	0x3bafc18a	0.005363648
62	0x3c7fb1dc	0.01560637
63	0xbca8d49e	-0.020609196
64	0xbe912e01	-0.2835541
65	0xbe53e1c7	-0.20691596
66	0x3b1fa2ba	0.0024358467
67	0xbddbc336	-0.10730593
68	0x3e022c19	0.12712134
69	0xbdbc12db	-0.09183284
70	0x3f07b1cc	0.5300567
71	0x3c8c7d2a	0.017149527
72	0xbf5c894c	-0.86147
73	0xbf1677b2	-0.5877639
74	0x3f09b13e	0.53786075
75	0x3d9f77f2	0.0778655
76	0x3ef8fee4	0.48631966
77	0x39471130	0.00018984522
78	0x3e1209cf	0.14261554
79	0x3f01c966	0.50697935
80	0xbd189561	-0.037251834
81	0xbeddb0bc	-0.432989
82	0xbe9b955e	-0.30387396
83	0x3d871982	0.06596662
84	0xbaf5b140	-0.0018744841
85	0xbec38d6a	-0.38193828
86	0x3f3ace81	0.7297135
87	0x3de99e2e	0.114071235
88	0xbd152880	-0.036415577
89	0x3e52b464	0.20576626
90	0x3f342ee7	0.7038407
91	0x3eafb2cd	0.34316102
92	0xbf7321eb	-0.9497363
93	0xbf36584b	-0.71228474
94	0x3e0f0bd2	0.13969353
95	0xbd8b95da	-0.06815691
96	0x3ddb2b78	0.107016504
97	0xbef6bd12	-0.48191124
98	0xbe356a09	-0.1771623
99	0xbf57b8c2	-0.84266293
100	0x3ec0e867	0.3767731
101	0xbb749335	-0.0037319188
102	0xbdd61f9c	-0.10455248
103	0xbe8d43f0	-0.27590895
104	0xbceb0aa7	-0.028691603
105	0xbee053a5	-0.43813816
106	0xbecadfed	-0.39623967
107	0x3e2d31ab	0.16913478
108	0xbec712f6	-0.38881654
109	0xbd208f9a	-0.03919945
110	0xbd714d0a	-0.05891136
111	0xbe77b7b1	-0.24191166
112	0xbf602cdf	-0.8756847
113	0xbe90c558	-0.2827556
114	0x3f7bbaee	0.9833211
115	0x3ec373d3	0.38174304
116	0x3ebc569e	0.36784834
117	0xbea694d4	-0.32535422
118	0xbdf09837	-0.11747783
119	0x3ebc5986	0.3678705
120	0xbc10fb87	-0.008849031
121	0xbe59810e	-0.21240637
122	0xbe9d2d79	-0.30698755
123	0x3ead275e	0.33819097
124	0xbcef3897	-0.029201789
125	0x3df9e1df	0.122012846
126	0xbf483bfc	-0.7821653
127	0xbcb9ad74	-0.022665717
128	0xbdf624af	-0.120187156
129	0x3f198834	0.59973454
130	0x3f3ec90f	0.7452554
131	0xbeed3126	-0.4632656
132	0x3e0f77ba	0.14010516
133	0xbe326d5c	-0.1742453
134	0x3e8d2750	0.27569056
135	0x3e88e022	0.267335
136	0xbeb96fd9	-0.36218145
137	0x3e98ee42	0.29869276
138	0xbca76e62	-0.020438377
139	0xbeaa3d59	-0.3324993
140	0x3d43e119	0.04782209
141	0x3e58da4b	0.21177022
142	0x3e4e2c1d	0.20134015
143	0x3f7803db	0.9688088

blocks_1.0.proj_2.bias f4 [12]
0	0xba8b845d	-0.0010644306
1	0x3a2d2ee3	0.0006606413
2	0xbbc37590	-0.0059649423
3	0xbb4a8283	-0.0030900545
4	0xb9d26c37	-0.00040134948
5	0x3c47afa8	0.012187876
6	0xbb0c4be8	-0.0021407548
7	0x3ae8dfd0	0.0017766897
8	0x3bcc7751	0.0062398096
9	0x3a2813ae	0.0006411624
10	0x38cb5d19	9.697135e-05
11	0xbba773e2	-0.00511025

blocks_1.0.bn2.weight f4 [12]
0	0x3f8456fe	1.0339048
1	0x3f6e5f8e	0.93114555
2	0x3f6eb96d	0.9325169
3	0x3f706040	0.93896866
4	0x3f7b8c61	0.98261076
5	0x3f60e757	0.87852997
6	0x3f81151d	1.0084568
7	0x3f66b979	0.9012676
8	0x3f850847	1.0393151
9	0x3f80ffdb	1.0078081
10	0x3f63ef14	0.8903668
11	0x3f7d1033	0.98852843

blocks_1.0.bn2.bias f4 [12]
0	0x3dc6e2bc	0.09711215
1	0xbe88ad8e	-0.26694912
2	0x3dd65619	0.104656406
3	0x3df76252	0.120793
4	0x3de7eb55	0.11324183
5	0xbd9c126c	-0.07620701
6	0x3e2ed193	0.17072134
7	0xbdfbf6cf	-0.123029344
8	0xbded0f1f	-0.1157515
9	0xbe171d79	-0.14757337
10	0xbdaf1719	-0.085493274
11	0x3dca5b82	0.09880735

blocks_1.0.bn2.running_mean f4 [12]
0	0xbf2e5308	-0.68095446
1	0x3f94a9d8	1.1614332
2	0x3f9bfe47	1.2186974
3	0x3f7eb9bc	0.9950216
4	0xbf70fc35	-0.9413484
5	0xbe852933	-0.26007995
6	0xbfe525f9	-1.7902213
7	0xc03ab92f	-2.9175527
8	0x3dd41b03	0.103567146
9	0xbff6ed10	-1.9291096
10	0x400cd158	2.2002773
11	0xbe9ee3f0	-0.31033278

blocks_1.0.bn2.running_var f4 [12]
0	0x4108f0e6	8.558813
1	0x41a121aa	20.141438
2	0x41626d76	14.151724
3	0x417cbe53	15.796466
4	0x419b9333	19.446875
5	0x405bf744	3.436967
6	0x4215c8a8	37.445953
7	0x42ee112a	119.03352
8	0x4076b065	3.8545163
9	0x4272c812	60.69538
10	0x426c1caa	59.027992
11	0x40ee99f9	7.4562955

blocks_1.1.proj_1.weight f4 [12, 12, 1]
0	0xbebedc57	-0.3727748
1	0x3d8f7986	0.07005601
2	0xbef2c3a7	-0.47414896
3	0x3ea8ea8b	0.32991442
4	0x3f2b6806	0.669556
5	0x3dfb23b3	0.122626685
6	0xbe4b86d3	-0.1987565
7	0xbd9bd98d	-0.07609854
8	0x3ee54420	0.44778538
9	0xbf568585	-0.83797485
10	0x3e920c17	0.2852485
11	0x3ded3f8d	0.11584387
12	0xbec38869	-0.3819001
13	0x3aaec80d	0.0013334766
14	0xbf1530bf	-0.58277506
15	0xbdc8b4a0	-0.098000765
16	0x3ca961d9	0.02067654
17	0xbdba8327	-0.091070466
18	0x3ecaefd2	0.39636093
19	0xbf558ca5	-0.8341773
20	0xbd70ebf0	-0.058818758
21	0x3df62a52	0.12019791
22	0xbe71b55c	-0.2360434
23	0xbf219028	-0.6311059
24	0xbec999ef	-0.39375255
25	0xbe820a1b	-0.25398335
26	0x3ec17e3d	0.37791625
27	0xbea62195	-0.32447496
28	0x3f231dc3	0.6371729
29	0xbea0fad7	-0.31441376
30	0xbf091ea7	-0.53562397
31	0x3f03cf4e	0.51488197
32	0x3f954b29	1.1663562
33	0xbf2b0c41	-0.6681557
34	0x3e00004f	0.12500118
35	0xbef8d311	-0.4859853
36	0x3f36e00d	0.71435624
37	0x3f2efd19	0.68354946
38	0x3e60cbdc	0.21952766
39	0xbedebf74	-0.43505442
40	0xbebbe03b	-0.36694512
41	0x3f372422	0.7153951
42	0x3e36194c	0.17783087
43	0x3df776b4	0.12083188
44	0xbde92f3d	-0.11385963
45	0x3f4a0bf9	0.7892452
46	0xbe3c54e2	-0.18391755
47	0xbf2ebad5	-0.68253833
48	0x3e6398fb	0.22226326
49	0xbed17c56	-0.40915173
50	0xbf64cf93	-0.89379233
51	0x3e5fd182	0.21857265
52	0xbd0fdfd8	-0.035125583
53	0x3f7f43e0	0.99712944
54	0xbdd78945	-0.10524229
55	0x3de2827e	0.11060046
56	0x3eaf6e24	0.34263718
57	0x3e9fa284	0.31178677
58	0xbf37d14b	-0.7180373
59	0x3dbe8f13	0.09304633
60	0x3ec5c73f	0.38628575
61	0x3d810962	0.06300618
62	0xbd885c44	-0.06658223
63	0x3df1608f	0.11785995
64	0x3e490f2c	0.19634694
65	0xbe875d75	-0.2643849
66	0xbf311ddd	-0.6918619
67	0xbdbc224f	-0.09186231
68	0x3d91fa00	0.07127762
69	0x3ec8a3e0	0.39187527
70	0xbeff5583	-0.49869928
71	0xbe3b0ee0	-0.18267393
72	0x3f480bf9	0.7814327
73	0x3dcbd6a0	0.09953046
74	0xbe4a5067	-0.19757234
75	0xbf16a9eb	-0.58853024
76	0x3e7f15c0	0.2491064
77	0xbe359a25	-0.17734583
78	0xbdaf2a6e	-0.08553015
79	0xbe92932d	-0.2862791
80	0x3dd091b9	0.101840444
81	0x3eb1f37e	0.34756082
82	0x3d122229	0.03567711
83	0xbeb0dfce	-0.3454575
84	0xbd75058f	-0.059819754
85	0x3f108d1a	0.56465304
86	0x3f237375	0.6384805
87	0x3dc263bc	0.09491679
88	0x3ecc0fbd	0.39855757
89	0x3f332bad	0.6998852
90	0x3eed0aba	0.46297246
91	0x3f08c71f	0.53428835
92	0xbeb76bb8	-0.3582437
93	0x3e532f8b	0.20623605
94	0x3e1d4042	0.15356544
95	0xbef62210	-0.48072863
96	0x3c83593e	0.016033765
97	0x3e54cd30	0.20781398
98	0xbe15451f	-0.14577149
99	0x3e89239f	0.2678499
100	0xbd6d5b0d	-0.05794816
101	0x3f751b69	0.9574495
102	0xbe36b849	-0.17843737
103	0x3d98ee1d	0.074672915
104	0xbdd7a537	-0.10529559
105	0x3e82ff32	0.25585324
106	0xbeddefb1	-0.43346933
107	0xbe27ea45	-0.1639796
108	0x3d796c1c	0.060894117
109	0xbdeb5d0f	-0.11492359
110	0xbe13dec0	-0.14440441
111	0xbe8b48c4	-0.27203953
112	0x3efe525d	0.49672213
113	0xbdd0d12a	-0.10196145
114	0x3e52ad0d	0.20573826
115	0x3f28b5fa	0.65902674
116	0x3e474a32	0.19461897
117	0x3ef75d3e	0.48313326
118	0xbdd2f537	-0.10300677
119	0x3e90a387	0.2824976
120	0x3cc0438a	0.023469705
121	0x3ef3f39e	0.47646803
122	0xbf2e150b	-0.6800086
123	0xbe8b66f1	-0.27226976
124	0xbe17a01d	-0.14807172
125	0x3e7df72a	0.24801317
126	0xbdcb125a	-0.0991561
127	0x3b70e0ba	0.0036755041
128	0x3f1f3fe0	0.6220684
129	0xbf15b0f7	-0.5847315
130	0x3e77735a	0.24165097
131	0xbefff7af	-0.49993655
132	0x3e0de687	0.1385747
133	0x3f359d4d	0.70943147
134	0x3c32c2b0	0.010910675
135	0xbe4dd502	-0.20100787
136	0x3e43721b	0.19086497
137	0x3c484271	0.012222872
138	0xbf186bb0	-0.5953932
139	0x3d1ac5d4	0.03778632
140	0xbdad6d9b	-0.08468171
141	0x3dc76b08	0.097372115
142	0x3f60b8ac	0.87781787
143	0x3e37b592	0.17940357

blocks_1.1.proj_1.bias f4 [12]
0	0x3952d895	0.00020107844
1	0xbaa1b3e2	-0.0012336934
2	0xb90f0139	-0.00013637998
3	0xb947a949	-0.00019041183
4	0x38859744	6.3701096e-05
5	0xba68e703	-0.0008884521
6	0x39146f83	0.00014155921
7	0x39cec550	0.0003943839
8	0xb9d4f554	-0.00040618575
9	0xb88499cc	-6.3228974e-05
10	0x3a3e48c6	0.0007258769
11	0xba1ca03a	-0.00059748034

blocks_1.1.bn1.weight f4 [12]
0	0x3f773aef	0.965743
1	0x3f825c24	1.0184369
2	0x3f817df1	1.0116559
3	0x3f77a8fc	0.96742225
4	0x3f801f6c	1.0009589
5	0x3f873b32	1.056494
6	0x3f5fa524	0.8736136
7	0x3f726426	0.94684064
8	0x3f811e90	1.0087452
9	0x3f748974	0.95522237
10	0x3f76dfe0	0.96435356
11	0x3f805a8e	1.0027635

blocks_1.1.bn1.bias f4 [12]
0	0x3b6753ba	0.0035297708
1	0x3dca4a5a	0.09877463
2	0xbc2bd5ae	-0.010487957
3	0x3bac3f3b	0.005256561
4	0xbe13c316	-0.14429888
5	0x3e17322c	0.14765233
6	0xbd846de7	-0.06466275
7	0x3d3363a0	0.04379618
8	0xbc4e8bc1	-0.012606562
9	0x3c03e398	0.008049868
10	0xbd8581a5	-0.06518868
11	0x3d4f3b18	0.050593466

blocks_1.1.bn1.running_mean f4 [12]
0	0x3d945bfa	0.07244106
1	0x3cff3ac9	0.03115596
2	0xbe7dd055	-0.24786504
3	0xbf41b7f8	-0.7567134
4	0xbe00e1a8	-0.12586081
5	0xbe20931d	-0.1568112
6	0xbe247289	-0.16059317
7	0xbe7afc8a	-0.24510399
8	0xbea4c60b	-0.32182345
9	0xbdcea79b	-0.10090562
10	0xbf2cc369	-0.6748567
11	0xbf319857	-0.6937308

blocks_1.1.bn1.running_var f4 [12]
0	0x3f48c08a	0.7841879
1	0x40003b10	2.003605
2	0x41b244af	22.283537
3	0x3f41184a	0.7542769
4	0x41533cc0	13.202332
5	0x3fdf2bc5	1.7435232
6	0x401ca7c7	2.4477403
7	0x3ee2741e	0.44229215
8	0x4066e017	3.6074274
9	0x404c1db3	3.1893127
10	0x3ff0d873	1.8816055
11	0x40a2321d	5.0686173

blocks_1.1.attn.conv1.weight f4 [12, 1, 9]
0	0xbd876d98	-0.066127
1	0xbe8309ba	-0.25593358
2	0xbef1006a	-0.47070628
3	0x3f33e395	0.7026914
4	0xbe70a882	-0.2350178
5	0xbf1ad40a	-0.60479796
6	0x3e880208	0.2656405
7	0x3e1c815a	0.15283719
8	0x3e8f093d	0.27936736
9	0x3e82f103	0.25574502
10	0xbeb20e85	-0.34776703
11	0xbe5316b5	-0.20614131
12	0xbe4cf6cc	-0.2001602
13	0xbf519269	-0.8186403
14	0xbc512126	-0.012764251
15	0xbf7efa88	-0.9960103
16	0xbe560c0c	-0.20903033
17	0xbdaf5b28	-0.085623085
18	0xbdeb3c4e	-0.114861116
19	0x3f3f92c7	0.7483334
20	0xbe610600	-0.21974945
21	0xbd428d9b	-0.047498327
22	0x3d23991a	0.03994093
23	0x3dd7bf5e	0.10534547
24	0xbef0db09	-0.4704211
25	0xbe0d62ba	-0.13807192
26	0x3db4c8d2	0.08827366
27	0xbef65d4a	-0.4811805
28	0x3f2f273f	0.6841926
29	0xbebdce0c	-0.37071264
30	0x3ef525f9	0.47880533
31	0xbda4f14a	-0.08053835
32	0x3eb217a8	0.34783673
33	0x3de33e8a	0.11095913
34	0x3ef23452	0.47305542
35	0x3ec397a7	0.3820164
36	0xbeba31f7	-0.36366245
37	0xbf0630b3	-0.5241806
38	0x3d33fb68	0.04394093
39	0x3f05d8d0	0.52283955
40	0x3e8b4ab0	0.2720542
41	0xbe95c1cf	-0.29249427
42	0x3f075dae	0.5287732
43	0xbf054fdb	-0.52074975
44	0xbd858304	-0.0651913
45	0x3d92e461	0.07172466
46	0x3fb51ede	1.4150045
47	0x3e99c69c	0.3003434
48	0xbdefde5c	-0.117123336
49	0x3e243bad	0.1603839
50	0x3ebbab7e	0.36654276
51	0x3f00748c	0.50177836
52	0x3f01020a	0.50393736
53	0xbd8e696d	-0.06953702
54	0xbd86cbe5	-0.065818585
55	0x3e98b5b8	0.2982614
56	0x3e8d69ff	0.2761993
57	0xbf20c889	-0.6280599
58	0x3f46c8d9	0.7765022
59	0xbd566cee	-0.052349977
60	0x3e73b972	0.2380121
61	0xbefa1770	-0.48846006
62	0xbee9c690	-0.45659304
63	0x3e31ba7e	0.17356297
64	0x3f15db82	0.5853807
65	0x3e19acdf	0.15007351
66	0xbd159e15	-0.036527712
67	0xbf18faf4	-0.59757924
68	0xbd83a485	-0.06427864
69	0x3f6b8105	0.91993743
70	0xbe785acb	-0.24253385
71	0x3ed40c3e	0.4141559
72	0x3f90bdd9	1.1307937
73	0x3e4a9b5b	0.19785826
74	0xbf12899b	-0.5724122
75	0x3eccc642	0.3999501
76	0xbc4bd3d7	-0.012440643
77	0x3eecabb0	0.46224737
78	0xbbfaf85c	-0.0076590013
79	0xbdebd19e	-0.11514591
80	0x3f084b50	0.5323992
81	0xbc545b45	-0.0129612135
82	0x3e98f8fa	0.29877454
83	0xbe975910	-0.29560137
84	0x3c0dfcfb	0.008666272
85	0xbeec3619	-0.46135023
86	0xbf1d32e4	-0.6140578
87	0x3f1c8df9	0.61154133
88	0xbf125d89	-0.57173973
89	0xbefbb352	-0.49160248
90	0xbeb1fb57	-0.3476207
91	0x3f4332ce	0.76249397
92	0xbf866b63	-1.0501522
93	0x3f37ae1c	0.71750045
94	0xbf7f83fd	-0.99810773
95	0x3ed11799	0.40838316
96	0x3e8c529f	0.27406785
97	0xbd850e8b	-0.064969145
98	0xbeedcdc8	-0.4644606
99	0xbec93294	-0.392964
100	0x3f15d4d0	0.5852785
101	0xbe96cb2a	-0.29451877
102	0x3f6e80b6	0.9316515
103	0x3e720974	0.23636419
104	0xbe958c14	-0.29208434
105	0x3f18e550	0.59724903
106	0xbf2ba16c	-0.67043185
107	0xbe4f8b11	-0.20267893

blocks_1.1.attn.conv1.bias f4 [12]
0	0x3dc70a85	0.09718803
1	0xbe19d05b	-0.15020888
2	0xbc59183a	-0.013250405
3	0xbddb5a2e	-0.1071056
4	0x3d83ea32	0.064411536
5	0x3e99e9e3	0.30061254
6	0xbd0655d6	-0.032796703
7	0x3c5aef21	0.013362677
8	0xbce056ed	-0.0273852
9	0xbcdc1bbb	-0.026868692
10	0x3ca711e8	0.02039428
11	0x3cab07cc	0.020877741

blocks_1.1.attn.conv_sequential.weight f4 [12, 1, 11]
0	0xbe8085ca	-0.25102073
1	0xbf2af0a8	-0.6677346
2	0x3e460f2a	0.19341722
3	0x3eca1c4f	0.39474723
4	0x3e06d1c4	0.13165957
5	0x3ecac0ec	0.39600313
6	0x3e85409c	0.26025856
7	0x3f2576dc	0.6463449
8	0x3f0765bc	0.5288961
9	0xbc2ef541	-0.01067859
10	0xbe5b6de9	-0.21428646
11	0xbe2c836e	-0.16847011
12	0x3e6cc699	0.23122634
13	0x3df3c10b	0.119020544
14	0xbf2ee3c9	-0.6831632
15	0x3f2a103d	0.6643103
16	0x3ca5951a	0.020212699
17	0x3efb6590	0.49100924
18	0xbebbfdbd	-0.36717024
19	0x3f9e2e16	1.2357814
20	0x3cc689a2	0.02423555
21	0xbde8cf01	-0.11367608
22	0x3e57d365	0.21076734
23	0xbe8a19f7	-0.26972935
24	0x3e1b99fe	0.15195462
25	0xbc0d8b43	-0.00863916
26	0xbe569cc2	-0.20958236
27	0x3d89d0bd	0.06729267
28	0xbd9ad5db	-0.07560321
29	0x3f011761	0.504263
30	0xbee8a897	-0.45441124
31	0xbf2d06db	-0.67588586
32	0xbeb769ae	-0.35822815
33	0x3f129f91	0.5727473
34	0x3ea8370e	0.32854503
35	0xbda6f334	-0.08151856
36	0x3f209a24	0.627352
37	0x3e770042	0.24121192
38	0x3ecb3a97	0.39693138
39	0xbf11ce8f	-0.5695581
40	0x3e8b55f1	0.27214006
41	0x3f8def0a	1.1088574
42	0xbdfca6c1	-0.12336493
43	0xbe2db561	-0.16963722
44	0xbe640eeb	-0.22271316
45	0xbda29d6b	-0.07940181
46	0x3c529557	0.012852988
47	0xbdadf4b5	-0.0849394
48	0x3ed7e7da	0.42169076
49	0x3e606b43	0.21915917
50	0xbdbe112d	-0.0928062
51	0x3ebe0979	0.37116602
52	0x3e673b86	0.225813
53	0xbe8398de	-0.25702566
54	0x3f37d22c	0.7180507
55	0x3e9ec991	0.31013158
56	0x3e2af8c6	0.16696462
57	0xba519601	-0.00079950696
58	0x3e48ff65	0.19628675
59	0x3d788012	0.060669012
60	0x3e8dda69	0.27705696
61	0x3ef6edf5	0.48228422
62	0x3e747db7	0.23876081
63	0x3e241f3c	0.1602754
64	0xbe3f08d2	-0.18655708
65	0xbddea7ed	-0.10871873
66	0xbe032587	-0.12807284
67	0x3e89b9b9	0.26899508
68	0xbed5ceae	-0.41759247
69	0xbf0a6ce3	-0.540724
70	0x3e1906f4	0.14944059
71	0x3eca0a5c	0.3946103
72	0xbf1c7027	-0.6110863
73	0xbcc3c17c	-0.023895971
74	0xbe75431e	-0.23951384
75	0xbd49c991	-0.049264494
76	0xbea696b2	-0.32536846
77	0xbd899478	-0.06717771
78	0x3e0c7592	0.13716725
79	0xbce201c8	-0.02758874
80	0xbdf67411	-0.12033857
81	0x3e5f553b	0.21809857
82	0x3f843b1f	1.0330542
83	0xbe5a871f	-0.21340607
84	0x3e32d62e	0.17464516
85	0x3ebd6444	0.3699056
86	0xbf173ba5	-0.59075385
87	0x3cdbf1c2	0.026848678
88	0x3e2d4dc8	0.16924202
89	0x3eb5e5b9	0.35526827
90	0x3f4490ab	0.76783246
91	0x3e967abb	0.2939051
92	0xbe3d501b	-0.18487589
93	0x3e6809de	0.22660014
94	0xbe331254	-0.1748746
95	0x3ef6c7cf	0.48199317
96	0xbedae13d	-0.42749968
97	0x3e95592b	0.29169592
98	0xbe88608b	-0.26636156
99	0x3e85ecec	0.2615732
100	0xbe790908	-0.24319851
101	0xbecb02f7	-0.396507
102	0x3f1a1e5b	0.6020257
103	0xbd1a6e85	-0.037703056
104	0xbb6fd53c	-0.0036595603
105	0x3db27e18	0.08715457
106	0xbe3a7b43	-0.18211083
107	0xbd80a48e	-0.06281386
108	0xbeeddf9f	-0.46459672
109	0xbe0a248d	-0.13490506
110	0xbd0965f5	-0.0335445
111	0x3e2bd84d	0.16781731
112	0x3f9fc378	1.2481527
113	0x3d82d0fc	0.06387517
114	0xbf5f23c9	-0.8716398
115	0x3ea5d381	0.32387927
116	0x3e6d6eb5	0.23186763
117	0xbde4f5ed	-0.11179719
118	0xbeb90316	-0.36135167
119	0x3ed5d6aa	0.41765338
120	0xbe22d744	-0.1590243
121	0xbe702d88	-0.23454869
122	0xbd524970	-0.051339567
123	0xbc424acc	-0.011858653
124	0x3e11b799	0.14230193
125	0x3d15a63e	0.036535494
126	0xbf270c29	-0.6525293
127	0xbe029f8e	-0.12756178
128	0x3f594612	0.84872544
129	0x3da21109	0.079134054
130	0xbe5549de	-0.2082896
131	0xbf079d4f	-0.5297441

blocks_1.1.attn.conv_sequential.bias f4 [12]
0	0x3dbd31e7	0.09238034
1	0xbe140edf	-0.14458798
2	0x3c5c4e6a	0.01344643
3	0xbdb2ded9	-0.08733911
4	0x3ce50342	0.027955655
5	0x3e8d7b27	0.2763302
6	0x3c9f55a2	0.019450013
7	0x3cb05848	0.02152647
8	0xbcdce347	-0.026963843
9	0x3cd14d29	0.025549488
10	0x3b62f102	0.0034628515
11	0xbcf5fc7d	-0.030027622

blocks_1.1.attn.conv2.weight f4 [12, 12, 1]
0	0xbdbe0b3b	-0.09279486
1	0x39baa4f5	0.00035599587
2	0xbe403560	-0.18770361
3	0x3e4e0d54	0.20122272
4	0xbd67d5a5	-0.05660023
5	0xbeb80674	-0.35942423
6	0xbdff0300	-0.12451744
7	0x3dc3d0a4	0.095612794
8	0xbf0fae8f	-0.5612573
9	0xbc6efe92	-0.0145870615
10	0x3dfe1151	0.124056466
11	0x3e09109a	0.13385239
12	0x3a9752a2	0.0011545012
13	0x3ecb0aab	0.39656577
14	0x3f26130b	0.6487281
15	0x3ca39be0	0.019971788
16	0xbef1504f	-0.47131583
17	0xbe9ad3e9	-0.302398
18	0xbf034626	-0.51278913
19	0xbe18ac40	-0.14909458
20	0xbe8eb2e9	-0.27870873
21	0xbdafd5b9	-0.08585686
22	0xbf02a0a4	-0.5102637
23	0x3e7dc290	0.24781251
24	0x3d86e763	0.06587102
25	0xbe602f11	-0.21892954
26	0x3f09840c	0.5371711
27	0xbe5ae9d9	-0.21378268
28	0xbd739fa0	-0.059478402
29	0x3ee5f821	0.4491587
30	0xbdfb8b33	-0.122824095
31	0xbe0344ae	-0.12819168
32	0x3df6e639	0.1205563
33	0x3d9a26b6	0.07526915
34	0x3bced6f9	0.006312248
35	0xbd176ea6	-0.036970757
36	0xbf0d5a42	-0.5521585
37	0x3d9e2fa3	0.0772393
38	0xbe8bf660	-0.27336407
39	0xbe6fe34d	-0.23426552
40	0x3ee3b3c9	0.44473103
41	0x3c0fa46c	0.008767229
42	0x3e2af7d3	0.166961
43	0xbe3c66dd	-0.18398614
44	0xbc192ecf	-0.009349539
45	0xbe870a44	-0.2637502
46	0xbcee575f	-0.029094396
47	0x3da58c94	0.08083454
48	0xbd5bbf51	-0.05364925
49	0x3ec79d46	0.38987178
50	0x3e2e2e3d	0.17009826
51	0xbeacccea	-0.33750087
52	0xbf1b300a	-0.60620177
53	0x3f08b628	0.5340295
54	0xbdfdcf8e	-0.123931035
55	0x3f037686	0.5135273
56	0xbf236ee2	-0.6384107
57	0x3e89c05e	0.26904577
58	0xbf17a5f1	-0.5923758
59	0x3e628f47	0.22124968
60	0x3f2a3000	0.6647949
61	0xbefd6206	-0.49488848
62	0x3a5d29eb	0.0008436727
63	0xbd817746	-0.06321578
64	0xbd6a9d92	-0.057279177
65	0x3dc2b2e9	0.09506781
66	0xbf08505b	-0.5324761
67	0x3c3d8327	0.011566914
68	0xbecdcfe8	-0.40197682
69	0xbee93e92	-0.4555555
70	0xbe519dd0	-0.20470357
71	0xbec888b4	-0.39166796
72	0x3f201a8e	0.6254052
73	0x3d26c5fe	0.040716164
74	0xbeffc0cb	-0.49951777
75	0x3eb844c3	0.3598996
76	0x3def6b28	0.1169036
77	0xbe36c0ee	-0.17847034
78	0xbd63217c	-0.055451855
79	0xbc156892	-0.00911917
80	0xbebacb93	-0.3648344
81	0xbed01c3f	-0.4064655
82	0xbf1a172e	-0.6019162
83	0x3de4cd0b	0.11171921
84	0xbe43fc2f	-0.19139169
85	0x3dd352e0	0.103185415
86	0xbe39d4fe	-0.18147656
87	0x3f62cee6	0.8859695
88	0xbf2ee75b	-0.6832177
89	0xbec76cdb	-0.38950238
90	0xbeb88273	-0.36037025
91	0xbeaf1585	-0.34196106
92	0x3e32985b	0.17440931
93	0xbce9a909	-0.028522985
94	0xbf2b1418	-0.66827536
95	0x3ef00173	0.46876106
96	0x3e142726	0.14468059
97	0xbef70233	-0.48243865
98	0x3f19104b	0.59790486
99	0xbeb2e720	-0.3494196
100	0x3d81e106	0.06341748
101	0x3eafec79	0.34360102
102	0x3f09c285	0.5381244
103	0xbf3f11b0	-0.74636364
104	0x3e72ef83	0.23724179
105	0x3e8042a0	0.2505083
106	0xbf16e8b8	-0.5894885
107	0xbf33879e	-0.7012881
108	0x3e85c382	0.26125723
109	0x3e4952ef	0.19660543
110	0x3e1ff449	0.15620531
111	0x3e724665	0.23659666
112	0x3ee9dce6	0.45676345
113	0x3e818fa8	0.25304914
114	0x3eb4fba3	0.35348234
115	0xbeea2212	-0.4572912
116	0xbecf7d52	-0.405253
117	0xbf2cf071	-0.67554384
118	0x3f1ad5c8	0.60482454
119	0x3e08b0cb	0.13348691
120	0x3cc6197b	0.024182072
121	0xbe9d3539	-0.30704668
122	0xbec70e52	-0.38878113
123	0xbe95fda3	-0.29295072
124	0xbe218f74	-0.1577738
125	0x3f71b9c9	0.9442411
126	0xbf0c8d64	-0.54903245
127	0x3ed496be	0.41521257
128	0xbf7ff490	-0.9998255
129	0xbb4857e2	-0.003056996
130	0x3ecb1ed1	0.3967195
131	0xbefda67f	-0.4954109
132	0x3e803e9e	0.25047773
133	0x3d64cc39	0.055858824
134	0xbe6a6880	-0.22891426
135	0xbe2c77ef	-0.16842626
136	0x3e55a72b	0.20864551
137	0x3f0c9755	0.54918414
138	0x3e17f725	0.14840372
139	0xbd1d2ade	-0.03837096
140	0xbf5889c2	-0.845852
141	0xbdf03eca	-0.11730726
142	0xbe279b30	-0.16367793
143	0x3f51be54	0.8193104

blocks_1.1.attn.conv2.bias f4 [12]
0	0xbcaf77db	-0.021419456
1	0xbdb40625	-0.087902345
2	0x3d222b3c	0.039592013
3	0xbd69a31c	-0.05704032
4	0x3d7a6a96	0.061136805
5	0x3d9067e3	0.07051065
6	0x3cfc99a9	0.03083499
7	0xbd5dbc10	-0.05413443
8	0x3d83f2a5	0.06442765
9	0xbd850281	-0.06494618
10	0xbd2fd273	-0.04292531
11	0x3d9d887c	0.07692048

blocks_1.1.proj_2.weight f4 [12, 12, 1]
0	0xbe897b47	-0.26851866
1	0xbe48049d	-0.1953301
2	0x3c2ceab6	0.010554006
3	0x3f1186e2	0.5684644
4	0x3e3c9637	0.18416677
5	0xbd83a9e5	-0.06428889
6	0x3e69bb31	0.22825314
7	0x3e6737da	0.225799
8	0xbde7cfac	-0.11318907
9	0x3ef694fd	0.48160544
10	0x3db9eb9c	0.09078142
11	0xbc804146	-0.015656125
12	0x3ea389fe	0.31941217
13	0xbeb575b2	-0.35441357
14	0x3e13baee	0.14426777
15	0x3ea78a5c	0.32722747
16	0x3d1369a8	0.035989434
17	0xbdc4893c	-0.09596488
18	0xbd0efd0f	-0.034909304
19	0x3f164731	0.5870238
20	0x3e15a94e	0.14615366
21	0xbddd2462	-0.10797955
22	0x3ee6238c	0.44948995
23	0x3e4101bf	0.18848322
24	0x3e3f0007	0.18652354
25	0x3e019cb9	0.12657441
26	0xbe437162	-0.19086221
27	0xbdf10c4a	-0.11769922
28	0xbec57628	-0.3856671
29	0xbef3d40c	-0.47622716
30	0x3e5761dc	0.21033424
31	0x3e266d5a	0.16252652
32	0xbee3a858	-0.44464374
33	0xbed7f4de	-0.42179006
34	0x3eb288c0	0.34869957
35	0xbebc387c	-0.36761844
36	0xbdb52ac9	-0.08846051
37	0xbf5df1a9	-0.8669687
38	0xbd640d99	-0.05567703
39	0xbe018610	-0.12648797
40	0xbf02a813	-0.5103771
41	0x3e2818cb	0.16415708
42	0xbf37d6ad	-0.71811944
43	0x3ec05d20	0.3757105
44	0xbf3567fd	-0.708618
45	0xbe1113b7	-0.14167677
46	0x3f0a44aa	0.54011023
47	0x3f266d79	0.6501079
48	0xbf423dad	-0.7587536
49	0x3e53ece5	0.20695837
50	0x3eafda04	0.3434602
51	0x3e14b686	0.14522752
52	0x3cd46176	0.02592538
53	0xbd96bdeb	-0.07360443
54	0x3f1911d1	0.5979281
55	0xbe040fab	-0.12896602
56	0xbfb7c119	-1.4355804
57	0x3eb62e79	0.3558233
58	0x3df65959	0.120287605
59	0x3cc699e6	0.024243306
60	0xbe82ec04	-0.2557069
61	0xbdb1a741	-0.08674479
62	0x3eb8c681	0.36088946
63	0xbe6a825b	-0.22901289
64	0xbf0ed94f	-0.55800337
65	0xbe9aa148	-0.30201173
66	0x3e1a9234	0.15094835
67	0x3f27d391	0.655572
68	0x3dda8d29	0.106714554
69	0xbe79d00a	-0.24395767
70	0x3f333c3a	0.70013773
71	0x3c2925fc	0.010323998
72	0x3e265e68	0.1624695
73	0xbec181c3	-0.37794313
74	0x3efe9444	0.49722493
75	0x3e5fb092	0.218447
76	0x3eb6aeba	0.3568018
77	0xbe66f32c	-0.225537
78	0x3ede4822	0.43414408
79	0x3e2381a8	0.15967429
80	0xbe964a8e	-0.29353756
81	0x3eed98b8	0.46405578
82	0xbe0698f6	-0.13144287
83	0xbe8fbdf7	-0.2807462
84	0xbe3d6c1b	-0.1849827
85	0x3ec23237	0.37928936
86	0x3e10640c	0.14100665
87	0xbf3c66f9	-0.73594624
88	0x3e2b8ea0	0.16753626
89	0x3ebcdc09	0.36886624
90	0xbef29cec	-0.47385347
91	0xbe134ad9	-0.14384021
92	0xbe90477e	-0.28179544
93	0x3e900267	0.28126833
94	0xbea6274b	-0.32451853
95	0x3de41cfe	0.11138342
96	0xbed603b5	-0.41799703
97	0x3de21051	0.11038268
98	0xbe027b17	-0.12742268
99	0x3cd70248	0.026246205
100	0x3cb24911	0.021763356
101	0x3f1f3527	0.6219048
102	0x3f035e8f	0.5131616
103	0x3f1ffd62	0.62496006
104	0x3e91b0cb	0.28455195
105	0xbeb3b2ad	-0.35097256
106	0x3e71668a	0.23574272
107	0xbd9c93da	-0.07645388
108	0x3e7f6d28	0.24943984
109	0x3e640c9f	0.2227044
110	0xbf31fa0a	-0.69522154
111	0x3e39b658	0.18135965
112	0xbc1608e0	-0.009157389
113	0xbf0054ec	-0.5012958
114	0xbdc739c6	-0.09727816
115	0xbeadaed4	-0.33922446
116	0x3cd49bee	0.02595326
117	0xbe180e8a	-0.14849296
118	0xbed56226	-0.41676444
119	0xbef08c0b	-0.46981844
120	0xbe864443	-0.26223955
121	0xbf2ce4d0	-0.6753664
122	0xbedece20	-0.43516636
123	0xbf83504f	-1.0258883
124	0xbeb5d036	-0.35510415
125	0xbeaf4c31	-0.34237817
126	0x3f0adcb1	0.54243
127	0x3e6f56a4	0.23372895
128	0xbf0f482d	-0.55969507
129	0x3eedf043	0.46472368
130	0xbe9870f7	-0.29773685
131	0xbf5e74ed	-0.86897165
132	0x3eabd1df	0.33558556
133	0xbf79345e	-0.9734553
134	0xbeaa27e0	-0.33233547
135	0xbe030925	-0.12796457
136	0xbe5e1d1a	-0.21690789
137	0x3e673782	0.22579768
138	0xbe0bc933	-0.1365097
139	0x3e88f817	0.26751778
140	0x3e348eac	0.1763255
141	0xbbafa345	-0.0053600394
142	0xbd2c3541	-0.042042974
143	0xbe26964f	-0.16268276

blocks_1.1.proj_2.bias f4 [12]
0	0xba68e6c4	-0.00088844844
1	0x39fbc129	0.00048018366
2	0xbbd91e35	-0.0066259154
3	0xba644fd5	-0.00087094057
4	0xb848ade2	-4.7845657e-05
5	0x3b3319c9	0.0027328602
6	0xbbad5785	-0.005289974
7	0x3bb11d5b	0.005405111
8	0x3b5078be	0.003181025
9	0x3a42f770	0.0007437384
10	0x38bb161e	8.9209745e-05
11	0xbb620814	-0.0034489678

blocks_1.1.bn2.weight f4 [12]
0	0x3f7ba812	0.9830333
1	0x3f82b990	1.0212879
2	0x3f8d02ef	1.101652
3	0x3f81f694	1.0153375
4	0x3f81ede5	1.0150725
5	0x3f828091	1.0195485
6	0x3f8c060b	1.0939344
7	0x3f614564	0.87996507
8	0x3f7616f7	0.9612879
9	0x3f7c6de0	0.98605156
10	0x3f8653c2	1.0494311
11	0x3f7276af	0.94712347

blocks_1.1.bn2.bias f4 [12]
0	0x3dc6e2bd	0.09711216
1	0xbe88ad93	-0.26694927
2	0x3dd65619	0.104656406
3	0x3df76243	0.12079289
4	0x3de7eb53	0.113241814
5	0xbd9c1270	-0.07620704
6	0x3e2ed199	0.17072143
7	0xbdfbf6ca	-0.12302931
8	0xbded0f1f	-0.1157515
9	0xbe171d75	-0.1475733
10	0xbdaf171e	-0.08549331
11	0x3dca5b85	0.09880737

blocks_1.1.bn2.running_mean f4 [12]
0	0x3e1e139b	0.15437166
1	0x3f56e074	0.8393624
2	0xbf85a4f8	-1.044097
3	0x400803e5	2.1252377
4	0xbe541dcb	-0.2071449
5	0x3fab1e56	1.3368633
6	0xbec90b3f	-0.39266393
7	0xbe785ea5	-0.24254854
8	0x3e1f69e8	0.15567744
9	0xc014b2bf	-2.3234098
10	0xbfe0113d	-1.7505261
11	0x3e6017a0	0.21884012

blocks_1.1.bn2.running_var f4 [12]
0	0x4043aeb3	3.0575378
1	0x41e67286	28.80592
2	0x4105de6e	8.366804
3	0x429dfb79	78.99116
4	0x41ef90ab	29.945639
5	0x42a1f94d	80.986916
6	0x405001a0	3.2500992
7	0x40dbdf9f	6.8710475
8	0x413e7816	11.904318
9	0x42d05e4b	104.184166
10	0x42c709df	99.51928
11	0x41bb7898	23.433884

blocks_1.2.proj_1.weight f4 [12, 12, 1]
0	0xbf0cb3cd	-0.54961854
1	0x3d644378	0.055728406
2	0xbea88f0a	-0.3292163
3	0x3db026a0	0.08601117
4	0x3e8a6ceb	0.27036223
5	0xbd3f8445	-0.046757
6	0xbec7d947	-0.39032957
7	0x3eef0392	0.4668241
8	0x3f00ddc6	0.503384
9	0x3e394ddb	0.18096106
10	0xbf04aec4	-0.5182917
11	0x3f2c2b41	0.672535
12	0x3e76e9ac	0.24112576
13	0x3d67147a	0.056416012
14	0xbf2c780a	-0.67370665
15	0xbe89000c	-0.26757848
16	0xbf2e6b22	-0.6813222
17	0xbe6012b5	-0.21882136
18	0x3deb864e	0.11500226
19	0x3dac4e76	0.08413403
20	0x3e8ba53e	0.27274507
21	0x3f012e36	0.5046114
22	0xbdff34bb	-0.124612294
23	0x3e686b43	0.22697167
24	0x3dbfe588	0.093699515
25	0xbe6419b1	-0.22275425
26	0xbed4af31	-0.4153991
27	0x3db5c6aa	0.08875783
28	0xbeb0ceb1	-0.34532693
29	0xbec3e956	-0.3826396
30	0xbe5e7d02	-0.21727374
31	0x3f0dca96	0.55387247
32	0xbf41c901	-0.7569733
33	0xbea88070	-0.3291049
34	0xbe54c438	-0.20777977
35	0xbf10ca32	-0.56558526
36	0xbec35e3a	-0.38157827
37	0xbb21e707	-0.0024704353
38	0x3d28cf91	0.041213576
39	0x3e00b0c0	0.12567425
40	0x3d52178a	0.05129198
41	0x3e893e3c	0.26805294
42	0x3e8142fe	0.25246423
43	0xbeae34ca	-0.3402465
44	0xbed7eeb3	-0.421743
45	0xbeeee0f5	-0.46656004
46	0xbf54901b	-0.8303239
47	0xbeda976e	-0.42693657
48	0xbca8991b	-0.020580819
49	0xbf0910db	-0.53541344
50	0x3f0637dc	0.52428985
51	0xbe06fd5f	-0.13182591
52	0xbf5c400a	-0.86035216
53	0x3f679493	0.9046108
54	0xbf162167	-0.5864472
55	0xbec003c1	-0.37502864
56	0x3e1019d6	0.14072356
57	0x3e48f82a	0.19625917
58	0x3f0b68f5	0.54457027
59	0x3cd0db75	0.02549527
60	0x3ec91109	0.3927081
61	0x3f318d65	0.69356376
62	0xbe7caeb3	-0.24676017
63	0x3eb032ba	0.344137
64	0xbdad3e50	-0.08459151
65	0x3e813990	0.2523923
66	0x3eedb06e	0.46423668
67	0xbe248aac	-0.16068524
68	0xbeb4f58d	-0.3534359
69	0xbe6716f0	-0.22567344
70	0x3e81043a	0.25198537
71	0xbec39ed9	-0.3820713
72	0x3f0971dd	0.53689367
73	0xbe133c6b	-0.14378516
74	0xbf0bee0e	-0.5466012
75	0x3e9ce5af	0.30643985
76	0xbf03bfe8	-0.514647
77	0xbe3c9d5e	-0.18419406
78	0xbe6a06b9	-0.22854127
79	0xbf2c8f8a	-0.67406523
80	0xbe012a79	-0.12613858
81	0x3ef46443	0.47732744
82	0xbf3a68d3	-0.728162
83	0x3eb5da33	0.35518035
84	0xbf01e15d	-0.507345
85	0x3ebb381e	0.36566252
86	0xbe5e5c36	-0.21714863
87	0xbe7e1503	-0.24812703
88	0xbed24216	-0.41066045
89	0x3ee4927d	0.44643012
90	0x3e61b246	0.22040662
91	0x3e626e52	0.22112396
92	0x3eccb0ab	0.39978537
93	0xbe248a87	-0.16068469
94	0x3e9108ec	0.2832712
95	0xbf17d377	-0.59307045
96	0xbdb28f27	-0.087187104
97	0xbedc5c74	-0.43039286
98	0xbf6fb280	-0.93631744
99	0xbe66fefd	-0.22558208
100	0x3e6ef539	0.23335733
101	0x3e4d6130	0.20056605
102	0xbe2b9fb1	-0.16760136
103	0xbe0f19f4	-0.13974744
104	0xbedb59e9	-0.42842034
105	0xbe0f8d81	-0.14018823
106	0x3ea1a613	0.31572017
107	0x3e171b57	0.14756523
108	0xbe745e77	-0.2386416
109	0xbdc4e20c	-0.096134275
110	0x3eaf5bb1	0.34249642
111	0xbde86006	-0.1134644
112	0xbeb3d4c6	-0.3512327
113	0x3ea81476	0.3282811
114	0x3e55cf10	0.2087977
115	0x3dca040a	0.09864052
116	0x3db96419	0.09052295
117	0x3f0f7fb2	0.5605422
118	0x3efc1323	0.4923335
119	0x3e8e3850	0.27777338
120	0xbf8c42b6	-1.0957859
121	0x3f444e25	0.7668174
122	0xbe83c192	-0.2573362
123	0x3d45d971	0.04830307
124	0xbf6cd93e	-0.92518985
125	0xbe5834d0	-0.21113896
126	0xbd87854c	-0.06617221
127	0x3e475135	0.19464572
128	0xbf1fffca	-0.6249968
129	0x3e68a3ec	0.22718781
130	0xbf13bd86	-0.57711065
131	0x3da21602	0.07914354
132	0xbdebe74d	-0.115187265
133	0x3eb3c0f9	0.35108164
134	0xbebe4a10	-0.3716588
135	0xbe220259	-0.15821208
136	0xbe24e10f	-0.16101478
137	0xbcf4018d	-0.029785896
138	0xbecba7da	-0.39776498
139	0x3f04e3cc	0.5191009
140	0x3e45fce8	0.19334757
141	0x3ef8d2c0	0.4859829
142	0x3f4bea18	0.79654074
143	0x3ee243a4	0.4419223

blocks_1.2.proj_1.bias f4 [12]
0	0xb92d24e9	-0.00016512316
1	0x38be2ee7	9.068642e-05
2	0x37e00794	2.670641e-05
3	0xb865e9bd	-5.481554e-05
4	0x393452bc	0.00017196959
5	0xb97284a4	-0.00023128331
6	0xb9103ddd	-0.00013755956
7	0xb8906b81	-6.886479e-05
8	0xb8b1eaa4	-8.483723e-05
9	0x39db837a	0.00041868893
10	0xb9541c5e	-0.00020228463
11	0x3915f801	0.00014302136

blocks_1.2.bn1.weight f4 [12]
0	0x3f700291	0.93753916
1	0x3f94678a	1.1594098
2	0x3f8546bd	1.0412213
3	0x3f7cef4c	0.9880264
4	0x3f7dd11b	0.99147195
5	0x3f78d499	0.971994
6	0x3f8a9415	1.0826441
7	0x3f7ecc4a	0.9953047
8	0x3f714561	0.9424649
9	0x3f6241c9	0.8838163
10	0x3f8f9fee	1.1220682
11	0x3f849c02	1.036011
